…
          "base_uri": "https://localhost:8080/"
        },
        "id": "DKfbf6d7cocy",
        "outputId": "3e716882-18a4-4c65-f58d-d8bcc2580f74"
      },
      "outputs": [
        {
          "output_type": "stream",
          "name": "stdout",
          "text": [
            "Model: \"sequential_10\"\n",
            "_________________________________________________________________\n",
            " Layer (type)                Output Shape              Param #   \n",
            "=================================================================\n",
            " conv2d_30 (Conv2D)          (None, 64, 64, 32)        896       \n",
            "                                                                 \n",
            " max_pooling2d_30 (MaxPoolin  (None, 32, 32, 32)       0         \n",
            " g2D)                                                            \n",
            "                                                                 \n",
            " dropout_40 (Dropout)        (None, 32, 32, 32)        0         \n",
            "                                                                 \n",
            " conv2d_31 (Conv2D)          (None, 32, 32, 64)        18496     \n",
            "                                                                 \n",
            " max_pooling2d_31 (MaxPoolin  (None, 16, 16, 64)       0         \n",
            " g2D)                                                            \n",
            "                                                                 \n",
            " dropout_41 (Dropout)        (None, 16, 16, 64)        0         \n",
            "                                                                 \n",
            " conv2d_32 (Conv2D)          (None, 16, 16, 128)       73856     \n",
            "                                                                 \n",
            " max_pooling2d_32 (MaxPoolin  (None, 8, 8, 128)        0         \n",
            " g2D)                                                            \n",
            "                                                                 \n",
            " dropout_42 (Dropout)        (None, 8, 8, 128)         0         \n",
            "                                                                 \n",
            " flatten_10 (Flatten)        (None, 8192)              0         \n",
            "                                                                 \n",
            " dense_20 (Dense)            (None, 128)               1048704   \n",
            "                                                                 \n",
            " dropout_43 (Dropout)        (None, 128)               0         \n",
            "                                                                 \n",
            " dense_21 (Dense)            (None, 1)                 129       \n",
            "                                                                 \n",
            "=================================================================\n",
            "Total params: 1,142,081\n",
            "Trainable params: 1,142,081\n",
            "Non-trainable params: 0\n",
            "_________________________________________________________________\n"
          ]
        }
…
